models/CNN.pth (torch, 37199 bytes, 8 tensors)

conv1.weight f4 [12, 1, 5, 5]
000000 35 d7 12 be c4 16 37 3d 1a 05 07 3c 4a 66 45 be
       -0.14339907 0.044699445 0.008240962 -0.19277301
000010 97 43 0d 3d 99 e5 0b be d8 3b cd 3d a2 fb 7b 3c
       0.034488287 -0.13661803 0.1002118 0.015379818
000020 e2 a8 b5 3c 7e 77 13 be 05 c7 23 3e 0e 28 d4 3d
       0.022175256 -0.14401051 0.15993889 0.10359202
000030 3a 90 ac bd c5 06 a7 3d b0 93 5b be 6a de 4b 3e
       -0.084259465 0.08155588 -0.21443057 0.19909063
000040 9c f0 9c bd 85 8e 19 3e b6 34 98 3e 73 9f ca bb
       -0.0766308 0.14995773 0.29727715 -0.0061835586
000050 54 08 4e 3e ea 29 9c bd d0 e1 0e 3e 4e 11 af 3e
       0.20120364 -0.07625182 0.13953328 0.3419289
000060 bb 2a 9a 3e 29 ac a3 be 74 71 07 be 8c 6d 05 3e
       0.30110726 -0.31967285 -0.13226873 0.1303007
000070 e5 b0 0c be 54 a9 ed bd 03 cc 54 3d 61 76 e9 3d
       -0.13739355 -0.116045624 0.051952373 0.11399532
000080 44 24 70 3e a8 cc fa 3d 3a 33 26 3e 01 ae 5f 3e
       0.23451334 0.12246066 0.16230479 0.21843721
000090 f0 83 9a 3e b2 16 09 3e ce d1 81 be 79 eb 6c be
       0.30178785 0.13387564 -0.2535538 -0.231367
0000a0 9e d0 93 be b9 3e a7 be 26 c8 5d 3d dd fa 24 be
       -0.288701 -0.3266504 0.054145955 -0.16111322
0000b0 75 27 e6 3d 7a 98 4d bd e1 98 29 bd fd e4 17 3e
       0.112379946 -0.05019424 -0.041405562 0.14833446
0000c0 7f 33 31 3e 5b 47 88 3e 99 15 3d 3e 49 7e 37 be
       0.173048 0.2661694 0.1846527 -0.17919268
0000d0 a8 66 7f be 36 fe 19 bd 30 82 26 3e 01 da b1 3d
       -0.24941504 -0.03759595 0.162606 0.08684159
0000e0 01 f0 20 be 1a d3 4f be 29 6a 36 3d aa 8d 27 3e
       -0.15716554 -0.20295373 0.044534836 0.16362634
0000f0 ad cb 0d be c7 0d 9f be f1 ff a3 bd f2 a7 bd 3d
       -0.13847227 -0.310652 -0.08007801 0.09260549
000100 b8 aa 8c 3e 79 11 47 be 07 a8 29 be a2 7a 85 be
       0.27473998 -0.19440259 -0.16568004 -0.26070124
000110 d3 ac b5 3d 5d 1b f4 3d f9 55 11 3c 63 84 3e be
       0.08870854 0.11919282 0.008870595 -0.18605189
000120 95 51 87 be 25 ca ec bd 16 e2 2f 3e 61 74 a5 3c
       -0.2642943 -0.115619935 0.17176089 0.020197095
000130 3b 41 ee 3d 64 b2 e7 3c 0a 6e c2 ba 8e 79 51 be
       0.116335355 0.028283305 -0.001483382 -0.20456526
000140 85 63 a7 bd d8 85 6d bd 71 bb 88 3e 8e d6 1e be
       -0.08173279 -0.05798897 0.26705506 -0.15511534
000150 09 79 91 be 1c dd 1b 3c 02 ec 72 bd d5 db a2 3e
       -0.28412655 0.009513166 -0.059307106 0.31808344
000160 a2 02 b9 3e 39 8e 92 be 3f 4f 5e be 7c c9 db bd
       0.3613482 -0.28624132 -0.21709917 -0.107317895
000170 4e 89 60 3d 28 62 cf 3e ab ff 17 3e a3 63 a9 bd
       0.054818444 0.40504575 0.14843623 -0.08270957
000180 aa bc 79 be 3d cb 1a be 2d fb ad bd 03 b7 e4 3d
       -0.24388376 -0.15116592 -0.084951736 0.11167719
000190 2e 08 1f be 4a 9e 46 be 8f c0 aa bc b9 c4 af 3d
       -0.15530464 -0.1939632 -0.020843772 0.08582444
0001a0 ca eb c4 3d 70 ee 92 be 59 52 12 be 40 c9 ae bd
       0.09615286 -0.28697538 -0.14289226 -0.08534479
0001b0 77 f3 46 3c a6 cf 67 3e 60 a4 99 bd f7 5b 99 3b
       0.0121430075 0.22637805 -0.07502055 0.0046801525
0001c0 d9 b7 3d 3d 17 e5 24 3d f3 1a 9c 3e 6e 77 7c be
       0.04631791 0.04025754 0.3048931 -0.24654934
0001d0 44 fd e0 bd bd fb 86 3d f3 95 77 3e a2 4c 28 3d
       -0.109858066 0.06590984 0.24178295 0.041088708
0001e0 4c 16 20 3d 87 02 3c 3e 79 5d 13 3e 0a 70 5e 3e
       0.039083764 0.18360339 0.14391126 0.21722427
0001f0 31 bb 24 3e 96 6c b6 bd 9e 24 cb bd ec 99 c0 bd
       0.16087033 -0.0890743 -0.099190935 -0.09404358
000200 1c 48 18 3e 06 ce 45 bd b4 39 27 3e 7b e7 02 be
       0.14871258 -0.048292182 0.16330606 -0.12783615
000210 a3 36 1b 3e 10 03 c4 3d aa 1e 6f be 94 7f 46 be
       0.15157561 0.095708966 -0.23351541 -0.19384605
000220 27 a3 11 be 38 f9 33 3d 54 33 83 3e bd e7 81 be
       -0.14222394 0.043938845 0.25625098 -0.25372115
000230 d6 71 e1 bb ba 20 63 be 3b a1 db bc cc 18 6e 3e
       -0.0068800254 -0.22180453 -0.02681028 0.23251647
000240 95 af 06 be c2 ea 49 be be 00 03 be ce 71 02 3e
       -0.13152917 -0.19718459 -0.12793252 0.12738726
000250 86 c7 d9 bc ee f0 0b 3e 4c ce 17 3e df 58 95 3e
       -0.026584398 0.13666126 0.1482479 0.29169366
000260 79 44 86 3e 9d 6d c1 3d cb 9d 19 3e 97 8f c7 3c
       0.26224115 0.09444735 0.150016 0.024360461
000270 19 0b b9 3d b7 39 21 3e e1 7a a7 3d 14 ff b3 3d
       0.0903532 0.15744673 0.08177734 0.08788887
000280 ee 80 65 bc df 5b 94 be 1b 08 6f be b3 b5 46 3e
       -0.01400779 -0.28976342 -0.23342936 0.1940525
000290 98 5b 76 bd 99 1f 7d bd 42 83 16 3d 39 b7 20 be
       -0.060145944 -0.061797712 0.03674627 -0.15694894
0002a0 08 b1 ba bd 24 9f 40 3e 34 21 0f be 63 ae 06 be
       -0.09115797 0.18810707 -0.1397751 -0.13152461
0002b0 b1 f0 13 bc 5e 2d 2e be 99 43 9c bd e1 e3 78 be
       -0.009029553 -0.17009494 -0.07630081 -0.24305679
0002c0 37 17 cf 3d 32 96 97 3e 17 9c a5 3c 77 3e d9 3d
       0.1011185 0.29606777 0.020216031 0.10607617
0002d0 a6 cf aa bd 3a c6 bd bc 25 89 a8 3e f3 06 e9 bd
       -0.08340387 -0.02316581 0.32917133 -0.113782786
0002e0 fa 74 dd bd 02 a7 dd 3c 43 29 db 3d 53 3a 30 3e
       -0.10813327 0.027057175 0.107012294 0.17209749
0002f0 b8 59 d6 bd 1d 43 74 be 1c fd e0 bd 5e dc 3b 3e
       -0.10466331 -0.23853727 -0.10985777 0.18345782
000300 c6 00 cb 3d f0 5d 84 be 64 45 95 bd 28 7d e3 3d
       0.09912257 -0.2585292 -0.07288626 0.11107856
000310 ff ea 96 3c 4e f5 f1 bd ff 13 41 be cd be 5e 3d
       0.018422602 -0.11814366 -0.18855284 0.05438118
000320 bd c9 f5 3a 89 67 bf 3d 39 32 48 3d ca 3f 8a 3c
       0.0018752139 0.0934592 0.04887602 0.01687612
000330 24 db be bd 26 b8 ab be 90 e3 c2 be 60 95 b2 be
       -0.093191415 -0.33538932 -0.3806424 -0.3487959
000340 52 16 a3 be 86 95 05 be d9 97 d2 bd ed eb 99 be
       -0.31852967 -0.1304532 -0.10282869 -0.3006281
000350 f4 c1 8f be d5 b8 1e be 4a 95 15 be 8f 61 91 3d
       -0.28077662 -0.15500195 -0.1460773 0.07098686
000360 f4 88 e5 3d 41 6a 33 3d f0 66 f4 3d 23 8e 49 3e
       0.11207762 0.043802503 0.11933696 0.19683127
000370 aa 88 7f 3e 27 f8 a9 3e 7c ec ac 3e 6f 0d 80 3e
       0.24954477 0.33197138 0.33774173 0.2501025
000380 d7 17 39 3e fe c5 7c be 49 34 1c be b1 2f 34 3e
       0.180755 -0.24684903 -0.1525432 0.17596318
000390 36 cb 7b bd 81 8d ad bd 03 8e 0f be 1f 03 85 bd
       -0.061473094 -0.08474255 -0.14019017 -0.06494736
0003a0 89 71 9a bd f7 a1 32 3d 44 9e 01 3e fb 5e 1c 3e
       -0.07541186 0.043611493 0.1265803 0.15270607
0003b0 18 37 0b be 06 59 38 3d d7 68 97 bd 94 c2 95 3e
       -0.13595235 0.045006774 -0.073930435 0.29250014
0003c0 d7 e0 05 be b0 f2 33 be 45 87 59 be db 69 fb bd
       -0.13074051 -0.17573047 -0.21243007 -0.1227605
0003d0 f8 dd 3d 3e f7 af 68 3e 19 4d 12 3e 84 d6 db bc
       0.18541706 0.22723375 0.14287223 -0.026835687
0003e0 94 25 4c be 4c e5 43 3e 6c a6 72 bc 74 88 ff 3d
       -0.1993621 0.19130439 -0.014810186 0.12477198
0003f0 28 61 15 be 17 8c 84 bd de a4 78 3d b2 93 02 be
       -0.14587843 -0.064720325 0.060704105 -0.12751654

conv1.bias f4 [12]
000000 3a e4 64 3a 2a 57 23 ba 1f c4 3a 3e 5e 5e 06 be
       0.0008731518 -0.0006230945 0.18238877 -0.13121936
000010 fb 22 34 be e0 60 e2 bd d6 70 34 3a f1 1e 94 bd
       -0.17591469 -0.11053634 0.0006883269 -0.07232464
000020 67 f0 f8 3d ec 70 aa bd 51 11 07 be 72 a9 e0 bd
       0.12155228 -0.083223194 -0.131902 -0.10969819

conv2.weight f4 [12, 12, 4, 4]
000000 46 1e 82 3d bd d8 8d 3d af 69 ad 3c b0 68 5f 3d
       0.063534304 0.06926105 0.021168558 0.054543197
000010 ad 55 92 3d 3d 6a 4d bc 64 bf 93 bc b6 64 f0 bd
       0.071452476 -0.012537536 -0.018035598 -0.11737959
000020 3f 2d 8a 3d a3 77 72 3d 34 36 a1 bd 35 b9 15 be
       0.06746911 0.059196126 -0.078716666 -0.14621432
000030 c7 48 0c 3e 34 27 9e 3d 3e 76 40 3c 8c 1e e0 bd
       0.13699637 0.07722321 0.011746941 -0.10943326
000040 04 c6 b1 3d f6 6b c3 3d e2 94 be bd dd 57 bf bc
       0.086803466 0.09542076 -0.09305741 -0.023357326
000050 f9 e8 fb 3d 22 7a 14 3d ab c4 07 be 3f 05 48 3d
       0.123002954 0.036249287 -0.13258617 0.048833128
000060 aa 01 f9 3c d1 95 08 bc 8b 29 47 bd 83 88 60 bd
       0.030396301 -0.0083365 -0.048623603 -0.054817688
000070 c6 bd af 3d 0a 7d df 3c 86 f2 d1 bd 8e a8 16 be
       0.08581118 0.027281303 -0.10251336 -0.14712736
000080 bd 81 ed bc 3a 53 8e bd 1e 81 43 bd 92 32 24 3d
       -0.028992528 -0.06949468 -0.047730558 0.04008729
000090 96 39 72 3d a4 66 f8 3c 06 29 03 3b 96 13 65 3d
       0.05913695 0.03032238 0.0020013466 0.05592688
0000a0 b9 ae 32 3d a0 8e 8c 3d 33 05 05 bb 48 18 93 3c
       0.04362366 0.06863141 -0.0020297288 0.017955914
0000b0 89 52 dc 3d ab f6 0c 3e bd 36 77 bc f5 c2 ee bc
       0.1075793 0.13765971 -0.015088734 -0.029145697
0000c0 06 f4 d6 bc 63 dd f6 bb 70 6b 76 3b 5f 47 30 bd
       -0.026239406 -0.0075337156 0.0037600659 -0.043036815
0000d0 ea 63 85 bb f0 8d b1 bc 73 16 41 bd 8a 95 6c bd
       -0.0040707486 -0.021674126 -0.04714055 -0.0577598
0000e0 cb c7 5f bc ea 07 21 bd 95 fe d5 bd 97 13 5e bc
       -0.013658474 -0.039314188 -0.10448948 -0.013554475
0000f0 59 13 8d bd eb 41 a9 bd ab 15 17 3d 61 e4 8f bc
       -0.06888456 -0.08264526 0.0368859 -0.017564954
000100 d8 9c 6c 3d ad 40 d9 3b d5 f6 65 bc 95 69 43 3d
       0.057766765 0.0066300244 -0.0140359 0.047708113
000110 03 01 8f 3d 1e 04 47 bd 9b 79 fa bc 09 59 9e bd
       0.06982615 -0.04858791 -0.030575564 -0.07731826
000120 d2 3e 00 3e 96 6a 72 3c 04 4c 28 be 32 6f 6c bd
       0.12523964 0.01479592 -0.16435248 -0.05772323
000130 4a 72 58 3d 4f a0 a4 bd a0 9b 04 be f7 38 90 bd
       0.05284337 -0.08038389 -0.12949991 -0.07042115
000140 e5 42 cb bc b7 09 94 3d 3f 35 63 bd 77 53 9c 3c
       -0.024812171 0.072284155 -0.0554707 0.019082768
000150 e5 3d 45 bc e1 22 47 3d f1 ed 12 3d a1 e0 61 bd
       -0.012038683 0.048617247 0.03587145 -0.055145863
000160 73 1c 28 3c cc bb dc 3c 08 c7 60 bd 5f 56 eb bc
       0.010260689 0.026945017 -0.05487731 -0.028727708
000170 72 61 00 3e 09 70 8d 3c 6a f6 49 3d 6e 1f fb bc
       0.12537172 0.017265337 0.049307264 -0.030654635
000180 4b 4c 18 be 5e 39 26 3c d0 3b 00 3d e5 c0 9d bd
       -0.14872853 0.010145513 0.03130704 -0.07702807
000190 33 31 c9 bc 0d ff 81 bc a2 cd 8c 3d 45 27 91 3d
       -0.024559593 -0.015868688 0.06875159 0.07087568
0001a0 1b 59 37 3c c8 ed f6 3a 95 cc 73 bb 75 6a 37 3d
       0.011190678 0.0018839175 -0.0037200798 0.04477926
0001b0 5f 47 9e 3c f0 2b ea bc 63 bd 9a bd da b9 4d bd
       0.019321142 -0.028585404 -0.07555654 -0.05022607
0001c0 ed f2 f9 3c d9 02 81 bd 8a 40 36 3c 50 c0 40 bd
       0.030511344 -0.06299371 0.011123786 -0.047058403
0001d0 04 1e 09 3c 26 d6 b1 3d 60 43 52 bb 93 56 00 3c
       0.008368973 0.08683424 -0.0032083616 0.007833141
0001e0 9a 39 a0 3d b0 36 ce 3d f4 12 4c bd d4 14 37 bd
       0.078234866 0.100690246 -0.049822763 -0.044697598
0001f0 38 2f 8b 3d aa d6 b5 3c 0c 0c 9f bd 67 86 b6 bd
       0.06796116 0.022197086 -0.0776597 -0.08912354
000200 73 2c bc bd 05 b9 1c bc 6f 20 9c 3a 59 4b 16 3c
       -0.091881655 -0.0095655965 0.0011911521 0.009173238
000210 8d ae 8e bd 30 ec ba bd d5 c7 8e bd 74 02 5f bd
       -0.06966887 -0.091270804 -0.06971709 -0.0544457
000220 1c 7b 53 be 23 dd 37 be a4 53 63 bd cf 9b 0b 3d
       -0.20652431 -0.1795545 -0.055499688 0.034084138
000230 4b 3c 3d be 0f 01 16 be 9e ed 2c 3d 61 bd 98 3c
       -0.18480031 -0.14648841 0.042218797 0.01864499
000240 62 0a d4 3c cf 3e 2e bd 02 70 9c bd c6 46 a7 bd
       0.025883857 -0.042540368 -0.07638551 -0.08167796
000250 c2 ee 5c 3d 84 a7 6a 3c 99 25 9f bd c6 98 87 bd
       0.053938635 0.014322165 -0.07770843 -0.06620936
000260 99 a7 72 3c 82 d8 c1 bd 64 49 d4 bd fe 04 d7 bc
       0.014810466 -0.09465124 -0.10365561 -0.026247498
000270 f0 af 39 3d 55 98 c9 3c 58 c3 13 3c ce f5 8e bd
       0.045333803 0.02460877 0.009018742 -0.06980477
000280 4f b6 11 bd 64 d3 85 bd cb bd 0d 3d 3e 99 61 bc
       -0.035574254 -0.0653446 0.03460483 -0.013769446
000290 cb d3 7a bd b6 a5 5b 3c 77 8b 67 3d 3b b1 89 bd
       -0.061237138 0.013406208 0.05652949 -0.06723257
0002a0 22 36 2d ba 92 85 62 3b 74 f4 88 bd cd ae 25 3d
       -0.00066074927 0.0034564477 -0.06687251 0.040449906
0002b0 ba 45 0b 3b 2e 57 5b 3c fa 41 a3 bc 2b 93 75 bc
       0.0021251277 0.0133874845 -0.019928921 -0.014988701
0002c0 bb 56 75 bc 5e ae 45 3d a1 14 bf bb dd e3 20 bc
       -0.014974291 0.048261993 -0.0058313166 -0.009819952
0002d0 cc 47 8f 3c b0 08 f0 3d 1f 6a 53 bd 49 26 05 be
       0.01749029 0.11720407 -0.051614877 -0.13002886
0002e0 92 a6 ba 3d 06 bd 51 ba 83 2f b0 bd 37 c4 92 bd
       0.09113802 -0.0008000884 -0.08602812 -0.07166331
0002f0 60 09 08 3d af a6 75 bd 25 fa c8 bd df b1 94 bd
       0.033212066 -0.059973415 -0.09813336 -0.07260489
000300 25 5c 26 bd 38 b5 ba bd db a4 ea bc 25 3f 47 3d
       -0.04061522 -0.09116596 -0.028643062 0.048644204
000310 ef d7 4b bd 41 2d 1d bd 11 5e bc bd a5 46 b5 bd
       -0.049766477 -0.038373236 -0.09197629 -0.08851365
000320 05 6c ad 3d cd 5e 49 3c bf 99 50 3d 82 ae 9a bd
       0.08467869 0.012290669 0.050927874 -0.07552816
000330 6a f7 a0 3d 08 ce c8 3d 55 97 03 3e 66 28 0c 3e
       0.078596905 0.09804922 0.12850697 0.13687286
000340 3c 6c d4 bd 4e 87 3e bd 30 55 a2 bd ee 56 31 bd
       -0.103722066 -0.046515755 -0.079264045 -0.043295793
000350 83 21 82 bd 03 56 97 3c f7 b5 d0 bb 23 da a8 bc
       -0.06354048 0.01847363 -0.006369348 -0.020611828
000360 8c 16 4f bd 6e 15 2b 3d a5 bd 92 bd 0b 35 0f be
       -0.05055861 0.041768484 -0.07165078 -0.13985078
000370 e5 3d c5 3d 5b 28 e0 3d 7f 25 ad 3d da 92 21 3d
       0.09630946 0.10945197 0.084544174 0.03944669
000380 3f bc 27 3d 7d 9a ec 3d 06 18 da 3c 92 0d ac 3d
       0.04095101 0.11552904 0.026622783 0.08401026
000390 ec 76 45 bd a8 eb 40 bc f7 41 92 3c f7 e2 cf 3d
       -0.048209116 -0.011774935 0.01785372 0.10150712
0003a0 08 5f d0 bd ce f0 f5 bc 67 40 91 bd 32 0c a5 bd
       -0.10174376 -0.030022051 -0.07092362 -0.08058967
0003b0 6d 1f 43 bd d8 41 ab bd ae c8 d5 bc 7f 19 40 bc
       -0.04763739 -0.08362168 -0.026096668 -0.011724829
0003c0 72 d0 7a bc 59 ed 4f bd 6e 67 47 bc d7 76 06 bd
       -0.015308486 -0.05076346 -0.012170656 -0.03282818
0003d0 df 60 83 bd 82 74 b1 bd ce 0d da bd eb 34 8d 3c
       -0.06414961 -0.086648 -0.10647164 0.017237147
0003e0 6d 5a e7 bc 21 5c 30 bd e0 8c 4e bd a6 1c 31 bd
       -0.02824136 -0.04305661 -0.050427318 -0.043240212
0003f0 fd 93 0b bd 2b 47 e3 3d 20 ef 1e 3e 67 47 ad 3d
       -0.03407668 0.110975586 0.15520906 0.084608845

conv2.bias f4 [12]
000000 26 f7 7e 3d be 9c ad bd 65 09 af 3c 3f b7 dc bd
       0.062247418 -0.08477162 0.021366784 -0.10777139
000010 02 8e 42 3d 9c 0b 14 3d 3d 96 79 bd dd d0 ef bc
       0.04749871 0.036143884 -0.060934294 -0.029274398
000020 53 4c be bd 0a 58 ad b9 fa ea a2 bc 0d 06 e5 3c
       -0.092919014 -0.00033062726 -0.019887436 0.027956987

layer3.weight f4 [30, 192]
000000 87 9f 85 bd a5 6b 3e bd b4 96 53 bc 62 30 85 bd
       -0.06524568 -0.046489377 -0.012914348 -0.06503369
000010 2f 35 5a 3a b3 ac 04 3d 30 fb 54 3d a9 04 48 3c
       0.0008323965 0.03239126 0.051997364 0.012208142
000020 3c 38 0e 3d e3 58 40 bd a0 54 3d 3d d7 7d 84 bd
       0.034721598 -0.04695977 0.046223283 -0.064693145
000030 a1 f6 11 bd e8 70 36 bd bb 0b 92 bd 80 37 42 3c
       -0.035635594 -0.04454127 -0.07131144 0.011854053
000040 22 35 1e 3c f6 e2 b4 3c 4d a4 4b bd 47 48 01 3d
       0.009656223 0.02208088 -0.049717236 0.03156307
000050 e4 48 88 bd 40 9c 1f ba 00 fc 17 bd 7d 1f 70 bd
       -0.06654528 -0.0006088652 -0.03710556 -0.05862378
000060 3a b2 e1 bc 23 33 ba 3c b8 d1 02 bd 2f 1f b8 3c
       -0.027550805 0.022729462 -0.031938285 0.022475807
000070 79 e6 95 bd 49 45 81 3c fe 90 52 39 db 56 8f 3d
       -0.0731935 0.015780108 0.00020081174 0.06998988
000080 1f a6 9e bd d2 03 61 3d 00 c2 59 bd fa 6d 68 bd
       -0.07746529 0.054935284 -0.05316353 -0.056745507
000090 d8 d3 51 3d ed 16 ca 3c ef cd 48 ba 2c 5f 35 3c
       0.05122742 0.024669135 -0.0007660081 0.011070054
0000a0 cc a8 c2 3b b2 32 e0 3c c7 04 30 3c f1 30 45 3a
       0.0059405323 0.027367923 0.0107433265 0.00075222465
0000b0 96 1e 20 bd dd 0d c8 bb 8b 0d 9d 3d 63 e0 fd bc
       -0.03909167 -0.0061051683 0.07668599 -0.030990785
0000c0 e6 8b da 3c 38 67 5f 3d d2 c3 76 3d 39 af 4f bd
       0.026678037 0.054541796 0.060245343 -0.050704215
0000d0 0d 2a 30 3d cf 62 62 bd 17 87 1e 3d 73 73 9f bc
       0.043008853 -0.055270012 0.03870305 -0.01946423
0000e0 47 14 ff bc 67 b4 6c 3c e7 0e bb 3c 8c a5 16 3b
       -0.031137599 0.014447308 0.022834254 0.0022986857
0000f0 84 4d 04 3d 76 67 2d bd 8c bf 52 3d 2b 1c 08 bc
       0.032300487 -0.042334996 0.051452205 -0.008307497
000100 4b 1c dc bc 2d d5 c9 3c 36 ff 52 bd 9a 7d 6a bd
       -0.02686896 0.024637783 -0.05151292 -0.05724869
000110 12 2f fe bb fd c3 5c bc 18 d9 3f bd 40 46 8b 3d
       -0.007757076 -0.013474462 -0.046837896 0.068005085
000120 c5 84 be 3c d4 9e 3c 3d 01 37 27 3c 5b b0 58 3c
       0.023256669 0.046049908 0.010205985 0.01322564
000130 b6 d4 b0 ba f4 04 35 3d 0d 5e 60 3b a9 66 0b bc
       -0.0013491127 0.044194177 0.0034235746 -0.008508363
000140 dd 84 73 3a b0 30 df bb 41 16 9b 3c a3 eb cc 3c
       0.00092895125 -0.006811224 0.01893151 0.025014704
000150 7c 5f 27 bd 5b 82 cf 3c f7 95 77 3d 86 41 d3 3c
       -0.040862545 0.025330713 0.060445752 0.02578808
000160 da 3e ed 3c 97 23 db bc bd 15 e8 3c 01 01 15 bd
       0.028960634 -0.026750369 0.028330678 -0.03637791
000170 28 61 65 bc 6f d8 83 3d d0 f8 b9 bb 90 ea bd bc
       -0.014000215 0.06437766 -0.0056754127 -0.023183137
000180 b1 b0 59 3d bb 70 84 3d 01 81 ed bc 09 e6 b8 bc
       0.05314702 0.06466814 -0.028992178 -0.022570627
000190 55 79 86 bd 08 c0 25 3d 18 e2 34 bd b1 a2 b5 3c
       -0.06566111 0.04046634 -0.044160932 0.022172304
0001a0 08 3d 7d 3d 01 75 d5 bc bb 42 8d bd 37 a5 98 3d
       0.061825782 -0.026056768 -0.068974935 0.07453387
0001b0 52 66 69 3b ed 89 82 bd c2 5d 81 3c ae a5 83 3c
       0.0035613966 -0.063739635 0.015791778 0.016070213
0001c0 97 8d 3c bc b6 66 2d 3d bf eb ce bc e8 8a 01 bc
       -0.011508367 0.04233428 -0.025258897 -0.007906653
0001d0 37 29 d4 bc 15 e7 9a bb c3 36 6f 3d 72 aa 70 3c
       -0.025898559 -0.004727254 0.058401834 0.014689075
0001e0 55 32 8b bd dc 11 16 bd 2f 4f 8a bb 42 88 e8 3b
       -0.067967094 -0.036638126 -0.004220865 0.0070963213
0001f0 1f 55 54 bd 06 c2 6f 3d 00 0d 04 bd c1 bc eb bc
       -0.05183899 0.058534645 -0.03223896 -0.028776528
000200 d7 02 1c bd d8 b5 07 bd dc ee 05 bd e2 ba f5 3b
       -0.038088646 -0.033132404 -0.032698497 0.007499085
000210 d0 8c 9f 3c 06 a9 ef bc 7a cc 6e bb 7b 3e 07 3d
       0.019476324 -0.029255401 -0.0036437795 0.03301857
000220 48 75 6f bd 74 6e 79 3d 97 64 7f 3b 78 2a 45 3d
       -0.058461457 0.060896352 0.0038969868 0.048136204
000230 69 f8 1c 3d b8 ae 20 3c 6e f3 36 3d 27 d0 05 bb
       0.03832284 0.009807281 0.044665746 -0.0020418258
000240 5e 51 90 bd 22 4b 04 3d f6 12 10 bd 29 d0 08 3d
       -0.070467696 0.032298215 -0.035174333 0.033401642
000250 54 22 65 bd 9b a3 74 bd d6 ea 19 bd 78 0b 83 bd
       -0.05594094 -0.05972634 -0.037577473 -0.06398672
000260 59 12 97 bd 8e 43 0d 3d b2 26 7a bd e4 47 4d 3c
       -0.073765464 0.034488253 -0.06107206 0.012529347
000270 90 10 e5 3c 01 77 48 3d 88 ca 1f bd 4d 9f 2f 3d
       0.027962 0.048941616 -0.03901151 0.04287653
000280 09 92 65 bc da c5 3f bd f5 ef 59 bc eb 70 e1 3c
       -0.014011868 -0.046819545 -0.013301839 0.027519664
000290 16 33 7f bd 7f 62 70 3c 7d cc 06 3b f3 85 1d bd
       -0.06230458 0.014671921 0.0020568662 -0.038457822
0002a0 6d 3a 86 3d 7a bd c7 3c 14 9a ee 3c 8f ab dd 3b
       0.065541126 0.024382342 0.029126205 0.006764836
0002b0 12 d2 77 3b a1 6d 27 bc be 01 6a 3c 54 6c 3b bd
       0.003781442 -0.010219009 0.014282642 -0.045757607
0002c0 5a c8 83 bb 93 c2 23 3d 34 48 a8 bd b4 84 fc 3c
       -0.0040216865 0.039980482 -0.08216897 0.030824997
0002d0 90 25 2e bd 2d 29 63 bd 2e cf 4f bd b3 16 41 3d
       -0.04251629 -0.05545919 -0.05073469 0.04714079
0002e0 91 c2 bf bc 44 b2 aa bc ab c6 3e bb a1 00 47 3d
       -0.023408206 -0.020836957 -0.0029110115 0.048584584
0002f0 eb d0 86 3d 28 77 46 bd 7b 34 6c bd 0b 20 8f bd
       0.06582817 -0.04845348 -0.057667237 -0.069885336
000300 7a 80 82 3d 90 1d 16 3d 47 42 06 3d 3d e9 4f bd
       0.06372161 0.036649287 0.03277805 -0.050759543
000310 ab 90 0c 3e 04 e2 f7 ba 84 f0 9e 3b 76 8d 19 be
       0.13727061 -0.0018911962 0.004850449 -0.1499537
000320 ca 55 9a 3d e1 4f 6b 3d aa 46 1a be 82 55 fd 3c
       0.07535894 0.057449225 -0.15066019 0.030924562
000330 ed f5 38 3d 98 38 06 3d ed a5 e4 bd ed 75 93 3d
       0.045156408 0.032768816 -0.1116446 0.07200227
000340 77 0f 04 3d 1e d5 0a 3a 23 b7 e2 bc 50 49 e4 3d
       0.03224131 0.0005296039 -0.027675217 0.11146796
000350 d2 4d 8e bd 93 33 0b bd d9 bb 44 3c d5 b7 83 3d
       -0.06948437 -0.033984732 0.012007677 0.064315476
000360 23 8a c4 bd 30 23 a0 bd 7b 27 9b bc ba a2 9c bc
       -0.0959666 -0.078192115 -0.018939724 -0.019120563
000370 d2 91 85 bd f1 74 29 3b 7e 0b 0f 3d 84 2c 9a bd
       -0.06521954 0.0025857056 0.03492307 -0.07528022
000380 e3 f6 d1 3c dd f5 ed 3c d8 44 46 3d f5 b0 7e bd
       0.02563042 0.0290479 0.0484055 -0.062180478
000390 af 7f 17 3d d4 10 16 bc 09 5e 67 bd 3c 1a 9e bd
       0.036987003 -0.009159286 -0.056486163 -0.077198476
0003a0 ce 3f b7 3c 08 7d 1c 3e 4a 94 0e bc d9 c6 87 3c
       0.022369292 0.1528207 -0.008702347 0.01657431
0003b0 fe 10 de 3d 8f b1 50 bc fb 68 b4 bd 71 d6 23 3d
       0.10843085 -0.012737646 -0.08809086 0.03999943
0003c0 a6 94 71 3d 62 05 22 bd 30 01 0c 3c 52 3b b9 3c
       0.058979653 -0.039555915 0.008545205 0.022611294
0003d0 5b 75 ab 3d 25 1b 9c bd c3 88 4f 3d 18 aa 7c bb
       0.08371993 -0.07622365 0.050667536 -0.0038553532
0003e0 fd 5b 86 3d 8a 15 08 bd 90 38 e1 3c fb 36 07 be
       0.06560514 -0.033223666 0.027492791 -0.13204567
0003f0 87 13 62 3d 7f 86 5c 3d 12 d3 89 3c 82 d8 4d bd
       0.055194404 0.053839203 0.016824279 -0.050255306

layer3.bias f4 [30]
000000 af 57 75 bd 94 fa 04 3d 14 58 89 bd d3 ce d8 3d
       -0.059898075 0.032465532 -0.06706253 0.105863236
000010 15 4f ea 3d 3d 5a 6d 3d e7 f7 bc 3d 04 51 a3 3c
       0.11440865 0.057947386 0.09226971 0.019936092
000020 d7 12 56 3d 28 98 6f 3d 93 19 5d 3d ab 88 e4 3d
       0.05226406 0.058494717 0.053979468 0.1115888
000030 28 9e 0b 3d 85 02 53 3c 01 30 7b 3d eb 65 01 bc
       0.034086376 0.012879019 0.061325077 -0.007897834
000040 29 57 e1 bd 0b 3e 7a ba 60 a8 ba 3d dc 82 ac 3d
       -0.110029526 -0.0009545988 0.09114146 0.08423397
000050 8e c2 8d 3d 6e 34 59 3d 2d 3d ab 3c ee 75 8b bc
       0.06921874 0.053028516 0.020903194 -0.017024007
000060 e9 36 cb 3d 6a 38 a9 3d 56 36 8f 3d 62 ce 56 bc
       0.09922583 0.08262713 0.06992786 -0.013110729
000070 7d e1 bd 3d 45 7e 74 3b
       0.09271524 0.0037306708

layer4.weight f4 [10, 30]
000000 5c d3 29 bd c9 41 54 3e 52 76 86 bd c6 92 b1 bc
       -0.041461334 0.2072822 -0.065655366 -0.021676432
000010 56 d9 d0 bd 65 09 84 3e 36 51 54 bd e2 23 59 bd
       -0.101977035 0.25788417 -0.05183526 -0.053012736
000020 79 4f 6a bc 32 13 b7 bd bd 31 b7 bd 90 bd b0 bc
       -0.014301174 -0.08939208 -0.08945034 -0.021574765
000030 c2 9d 88 3d 9c 63 57 bd dd 35 7a bd 81 2d 12 3f
       0.06670715 -0.05258523 -0.061086524 0.57100683
000040 a8 69 15 bd 12 32 22 3e 51 13 1a 3d ce 0c c0 3d
       -0.036477715 0.15839413 0.037616078 0.09377442
000050 cf a7 75 3c 7b dc 09 be b0 46 a7 bc ce f9 a1 3c
       0.014993622 -0.13463013 -0.020419449 0.019772436
000060 f8 58 95 bd b7 b9 d1 3d 3c 2b 0f be 3d fd b3 bd
       -0.0729236 0.102405004 -0.13981336 -0.08788536
000070 19 06 27 3d 82 97 3e be 5c bb da 3d bf 30 13 bd
       0.0407773 -0.18612483 0.10680267 -0.03593516
000080 2f cd 1e bd cc 65 1d 3f 3f c4 49 3c 8a 81 61 bd
       -0.038769897 0.61483455 0.012314855 -0.05505518
000090 79 1c 47 3d 40 e1 4e bd e4 6b e9 3e ce cd 9f bc
       0.048611138 -0.050507784 0.45590127 -0.019507315
0000a0 b6 6c 36 bc f0 5d a7 bc 8e 3d fa bc 79 13 ab 3b
       -0.011134317 -0.020430535 -0.03054693 0.005220827
0000b0 f4 fa 43 bc ef 30 ed 3c cb 45 1e 3c 80 b4 a3 3d
       -0.011961687 0.028953997 0.009660195 0.07993412
0000c0 8d 68 f8 bc ec 7d f8 ba f5 ea c6 bd 52 68 0c bd
       -0.030323291 -0.0018958426 -0.09712783 -0.034279175
0000d0 11 b9 27 bd 75 9c cd 3c 64 e0 21 3d 97 35 ef bc
       -0.040947977 0.025099019 0.039520636 -0.029200358
0000e0 36 2f 47 bd 45 ec 03 be 7f 22 b5 ba c7 72 7c 3c
       -0.04862901 -0.12883098 -0.0013819485 0.015408224
0000f0 1b 07 3a 3d 80 f3 bf bc 53 a7 4b bd e1 83 f0 bd
       0.045416933 -0.02343154 -0.04972012 -0.11743904
000100 5f 93 e7 bd 9d 58 72 3e 9d f2 68 3e 5d e4 6d be
       -0.11307406 0.23666616 0.227488 -0.23231645
000110 f4 1e 27 bd 0e 55 77 3c 05 f3 16 bd da 80 26 bd
       -0.040801004 0.015095962 -0.036852855 -0.040650226
000120 49 b4 44 be 10 21 c6 3d ee 93 5b bd cf 4b 31 be
       -0.19209398 0.09674275 -0.053607874 -0.17314075
000130 df cd 87 3e 84 6e cd 3c 49 dc b3 3d cb c0 20 be
       0.26524255 0.025077112 0.087822504 -0.15698545
000140 1e ad 6e be 7f 8c ee bc 43 88 d1 bc 3e d5 47 bb
       -0.23308226 -0.029119728 -0.02557767 -0.0030492092
000150 56 00 70 3d a1 bf 70 be 7b 01 09 3f 07 5b d7 3d
       0.05859407 -0.235106 0.53517884 0.10515409
000160 74 d9 00 be ec 61 9b 3d 12 58 6f 3d 56 94 0e bd
       -0.12582952 0.075870365 0.0584336 -0.034809433
000170 be ee bb bd f0 eb e4 bd a0 bf 1b bd da 1d 00 be
       -0.09176396 -0.11177814 -0.038024545 -0.12511387
000180 5e 02 b4 3c 04 61 38 be 04 27 9a 3b fd 69 0b be
       0.021973785 -0.18005759 0.004704358 -0.1361465
000190 d9 7c a4 bd 58 ef 1b be 18 1a 8b 3d 43 53 15 3d
       -0.08031625 -0.15228021 0.06792086 0.036456358
0001a0 78 0f 7b bc e0 6d a4 bc 4b bd 57 3d 33 a5 95 bd
       -0.015323512 -0.020071924 0.05267076 -0.073069
0001b0 90 f9 05 be 95 9a 86 bd 24 10 ed 3e 5b e8 ff 3d
       -0.13083482 -0.06572453 0.46301377 0.1249549
0001c0 7d b7 a4 3c c6 12 de bc 60 43 02 3f 7f e0 64 bd
       0.020107025 -0.027108561 0.50884056 -0.05587816
0001d0 51 63 0a be 1b 82 8d bd 92 44 d5 bc 45 25 87 3c
       -0.13514449 -0.06909581 -0.026033673 0.016497264
0001e0 5c d5 21 be 0a 44 ba bd 5e bf 2a bd ee 23 b7 bd
       -0.15804046 -0.09095009 -0.04168641 -0.089424
0001f0 f4 2c 96 3c b2 a7 00 3d 18 bd 59 bd 32 03 04 bd
       0.018331982 0.031409927 -0.05315885 -0.03222961
000200 9b 96 88 be 6c ea 0e 3d a4 66 76 3c e0 45 3f bd
       -0.26677403 0.03489153 0.01503912 -0.046697497
000210 8d 82 bf 3b e1 46 9d 3c c1 cf 2a be d2 52 57 bd
       0.0058444203 0.019198837 -0.16680814 -0.052569218
000220 f9 23 5f 3c 19 f4 44 bd 7c 1c 2c 3c 10 c8 80 3c
       0.013619416 -0.048084352 0.010504838 0.015720397
000230 48 27 01 bc bb 29 97 3d dc 2c 02 3f f2 15 f3 3e
       -0.007882901 0.07381006 0.508497 0.4747768
000240 1b e3 8a bd 04 5b ad 3d 07 f4 8c bd d0 8e 86 3d
       -0.06781598 0.084646255 -0.06882482 0.06570208
000250 69 5c b3 bd bc 7a 64 bd 31 26 aa 3d 46 e5 3e be
       -0.0875786 -0.05578111 0.08308066 -0.18642148
000260 c3 bf ac bd 85 0e d1 3c 9d aa 81 3c 90 b4 07 be
       -0.08435013 0.025519619 0.015828425 -0.13252473
000270 77 87 b1 bd 0e f5 b9 bd ba 4a 9f bd cf 62 89 3e
       -0.08668416 -0.090799436 -0.07777925 0.26833197
000280 b4 5e 7e bd ff 08 30 3f 2d 30 18 3c 1c b1 72 bd
       -0.062102035 0.68763727 0.00928883 -0.059250936
000290 84 e4 7c bc 0f bf ed 3d 00 11 97 bc 45 e9 93 3d
       -0.015435342 0.11608707 -0.018440723 0.07222227
0002a0 db d0 d2 bd ac b6 6a bd 99 5b ce 3c 30 93 29 be
       -0.10293742 -0.057303116 0.025190162 -0.16560054
0002b0 8d 4b e4 3c 3f 52 52 bd 57 f2 4e be cb 38 e1 bd
       0.027868057 -0.051347967 -0.20209633 -0.109971605
0002c0 d0 cf b3 3b 22 4e 37 3e 2f 95 34 3d 79 67 0b be
       0.0054874197 0.17900899 0.044087585 -0.1361369
0002d0 b4 d5 28 be 3a 72 a8 3e 87 98 63 bd 44 af 36 be
       -0.16487771 0.32899648 -0.055565383 -0.17840296
0002e0 47 ce 32 3e 62 23 34 be 17 72 19 bb 19 b3 10 bd
       0.17461501 -0.17591622 -0.002341395 -0.03532705
0002f0 90 d0 f9 3d fc d6 3a 3e 64 c1 6d 3c e7 5d 21 be
       0.12197983 0.18246073 0.01451144 -0.15758477
000300 36 2d 08 3c 12 49 a3 bc e8 c5 32 bd 5e bb 3c be
       0.00831156 -0.019932304 -0.04364577 -0.1843085
000310 ed 07 ef bd 8d ec 09 be 31 9a b5 bc 34 01 6c bd
       -0.116714336 -0.13469143 -0.02216825 -0.057618335
000320 56 1b ec bd 88 16 21 bd 2e ea 78 bc 9a ca ba bd
       -0.115286514 -0.039328128 -0.015192552 -0.091206744
000330 f5 51 4a 3d e8 14 38 3e 4e dd 9a 3d c0 f2 e3 3d
       0.049394567 0.17976725 0.07561742 0.11130285
000340 46 6c 34 3a fc a9 e2 3e 10 f9 0d be cc 4d a2 bb
       0.0006882589 0.44270313 -0.13864541 -0.0049531218
000350 82 aa 5e bc de 15 ef bc 26 ec af bd 05 41 a6 bd
       -0.013590457 -0.029185232 -0.085899636 -0.0811787
000360 24 b1 d5 3c 28 da 57 3f 74 63 d6 bc 20 a4 3c bc
       0.026085444 0.84317255 -0.02617047 -0.01151374
000370 67 51 0c bd ee 41 2b bd 84 15 b0 bc 6b f3 d5 bc
       -0.03425732 -0.041810922 -0.021494634 -0.026117047
000380 fd 07 ed bd fe 90 56 3b 35 bf 60 3d d2 2f 2b be
       -0.11573789 0.003274023 0.05486985 -0.16717461
000390 2e d8 fa 3d 4e 42 bc bd 2d b6 33 bd 78 5f 16 be
       0.12248264 -0.09192334 -0.04387491 -0.14684856
0003a0 e6 11 9d 3c 18 3f 81 bd 76 37 11 bd cf 78 e4 bb
       0.019173574 -0.06310862 -0.035453282 -0.0069724093
0003b0 b9 f0 54 bd ca 7d f3 bd 49 b3 3f bc cc b3 49 bd
       -0.051987384 -0.11889227 -0.01170046 -0.049243733
0003c0 fc 24 24 3e 81 81 34 be a1 74 1e 3f 0d e4 1b be
       0.16029733 -0.17627527 0.6189671 -0.15223713
0003d0 18 df 11 3e 74 bb bd 3b e9 02 b1 bd 85 95 ab bd
       0.1424526 0.0057901684 -0.08643133 -0.08378128
0003e0 45 9a ca bb f4 53 27 be 9d b1 98 be e7 fc fa bd
       -0.006182941 -0.1634062 -0.29823008 -0.122552685
0003f0 44 ff f5 3c db 7a 9f bb 61 9a b2 3d 63 e3 fd bd
       0.030028947 -0.0048669404 0.08720852 -0.12396886

layer4.bias f4 [10]
000000 e9 3b 0a 3d 8d b9 56 3d 9d 6e 40 3e 2c 75 32 3e
       0.03374854 0.05242305 0.18792196 0.1742751
000010 bb 0d 74 3d 66 c3 29 3e bf 58 42 3d 31 6c a7 3d
       0.059583407 0.16578445 0.047447916 0.08174933
000020 6c f8 ee 3d ed 2a ac 3d
       0.116684765 0.08406625
